…
2024-06-27 21:18:44,813 - INFO - device: cuda:0
2024-06-27 21:18:44,905 - INFO - Loading data from data/qi_fgfr_time_v2.csv
2024-06-27 21:18:44,908 - INFO - total size: 18851, train size: 7297, val size: 0, test size: 11554
2024-06-27 21:18:53,674 - INFO - load KANO pretrained model
2024-06-27 21:18:53,675 - INFO - model: KANO_Prot(
  (sigmoid): Sigmoid()
  (molecule_encoder): MoleculeModel(
    (sigmoid): Sigmoid()
    (encoder): CMPN(
      (encoder): CMPNEncoder(
        (dropout_layer): Dropout(p=0.0, inplace=False)
        (act_func): ReLU()
        (W_i_atom): PromptGeneratorOutput(
          (self_out): Linear(in_features=133, out_features=300, bias=False)
          (prompt_generator): Prompt_generator(
            (linear): Linear(in_features=133, out_features=300, bias=True)
            (attention_layer_1): AttentionLayer(
              (w_q): Linear(in_features=133, out_features=32, bias=True)
              (w_k): Linear(in_features=133, out_features=32, bias=True)
              (w_v): Linear(in_features=133, out_features=32, bias=True)
              (dense): Linear(in_features=32, out_features=133, bias=True)
              (LayerNorm): LayerNorm((133,), eps=1e-06, elementwise_affine=True)
              (dropout): Dropout(p=0.1, inplace=False)
            )
            (attention_layer_2): AttentionLayer(
              (w_q): Linear(in_features=133, out_features=32, bias=True)
              (w_k): Linear(in_features=133, out_features=32, bias=True)
              (w_v): Linear(in_features=133, out_features=32, bias=True)
              (dense): Linear(in_features=32, out_features=133, bias=True)
              (LayerNorm): LayerNorm((133,), eps=1e-06, elementwise_affine=True)
              (dropout): Dropout(p=0.1, inplace=False)
            )
            (norm): LayerNorm((300,), eps=1e-05, elementwise_affine=True)
          )
        )
        (W_i_bond): Linear(in_features=147, out_features=300, bias=False)
        (W_h_atom): Linear(in_features=447, out_features=300, bias=False)
        (W_h_0): Linear(in_features=300, out_features=300, bias=False)
        (W_h_1): Linear(in_features=300, out_features=300, bias=False)
        (W_o): Linear(in_features=600, out_features=300, bias=True)
        (gru): BatchGRU(
          (gru): GRU(300, 300, batch_first=True, bidirectional=True)
        )
        (lr): Linear(in_features=900, out_features=300, bias=False)
        (W_i_atom_new): Linear(in_features=266, out_features=300, bias=False)
      )
    )
    (ffn): Sequential(
      (0): Dropout(p=0.0, inplace=False)
      (1): Linear(in_features=900, out_features=300, bias=True)
      (2): ReLU()
      (3): Dropout(p=0.0, inplace=False)
      (4): Linear(in_features=300, out_features=1, bias=True)
    )
  )
  (protein_encoder): ProteinEncoder(
    (gcn): ModuleList(
      (0): GCNConv(1280, 300)
    )
    (drop1): Dropout(p=0.0, inplace=False)
  )
  (cross_attn_pooling): MultiHeadCrossAttentionPooling(
    (query_linear): Linear(in_features=300, out_features=300, bias=True)
    (key_linear): Linear(in_features=300, out_features=300, bias=True)
    (value_linear): Linear(in_features=300, out_features=300, bias=True)
    (dropout): Dropout(p=0.0, inplace=False)
    (ffn_norm): LayerNorm((300,), eps=1e-05, elementwise_affine=True)
    (out_linear): FeedForwardNetwork(
      (layer1): Linear(in_features=300, out_features=300, bias=True)
      (relu): ReLU(inplace=True)
      (layer2): Linear(in_features=300, out_features=300, bias=True)
    )
    (self_attention_dropout): Dropout(p=0.0, inplace=False)
  )
)
2024-06-27 21:18:53,676 - INFO - optimizer: Adam (
Parameter Group 0
    amsgrad: False
    betas: (0.9, 0.999)
    capturable: False
    differentiable: False
    eps: 1e-08
    foreach: None
    fused: False
    lr: 0.0001
    maximize: False
    weight_decay: 0

Parameter Group 1
…
